…
":"https://localhost:8080/"},"id":"GrVbG4OBTm22","executionInfo":{"status":"ok","timestamp":1734109235354,"user_tz":-360,"elapsed":484,"user":{"displayName":"Razib Khan","userId":"07914798416388560118"}},"outputId":"ce0ccd5c-05a2-40d5-b202-19b70163ca07"},"execution_count":7,"outputs":[{"output_type":"stream","name":"stdout","text":["Model: \"sequential\"\n","_________________________________________________________________\n"," Layer (type)                Output Shape              Param #   \n","=================================================================\n"," inception_v3 (Functional)   (None, 5, 5, 2048)        21802784  \n","                                                                 \n"," flatten (Flatten)           (None, 51200)             0         \n","                                                                 \n"," batch_normalization_94 (Bat  (None, 51200)            204800    \n"," chNormalization)                                                \n","                                                                 \n"," dense (Dense)               (None, 1024)              52429824  \n","                                                                 \n"," dropout (Dropout)           (None, 1024)              0         \n","                                                                 \n"," batch_normalization_95 (Bat  (None, 1024)             4096      \n"," chNormalization)                                                \n","                                                                 \n"," dense_1 (Dense)             (None, 512)               524800    \n","                                                                 \n"," dense_2 (Dense)             (None, 6)                 3078      \n","                                                                 \n","=================================================================\n","Total params: 74,969,382\n","Trainable params: 67,866,438\n","Non-trainable params: 7,102,944\n","_________________________________________________________________\n"]}]},{"cell_type":"code","source":["from tensorflow.keras.optimizers import Adam\n"
…
